ST Edge AI Core v1.0.0-19894
Created date          : 2026-02-12 10:58:50
Parameters            : generate --target stm32h5 --name network -m C:/Users/binghui.lai/ToF_CubeAI/aztech_demo/ToF_model_time_series_people_demo.h5 --compression none --verbosity 1 --allocate-inputs --allocate-outputs --workspace C:/Users/binghui.lai/AppData/Local/Temp/mxAI_workspace25991255911161008798711115278162272 --output C:/Users/binghui.lai/.stm32cubemx/network_output

Exec/report summary (generate)
-------------------------------------------------------------------------------------------------------------------
model file         :   C:\Users\binghui.lai\ToF_CubeAI\aztech_demo\ToF_model_time_series_people_demo.h5            
type               :   keras                                                                                       
c_name             :   network                                                                                     
compression        :   none                                                                                        
options            :   allocate-inputs, allocate-outputs                                                           
optimization       :   balanced                                                                                    
target/series      :   stm32h5                                                                                     
workspace dir      :   C:\Users\binghui.lai\AppData\Local\Temp\mxAI_workspace25991255911161008798711115278162272   
output dir         :   C:\Users\binghui.lai\.stm32cubemx\network_output                                            
model_fmt          :   float                                                                                       
model_name         :   ToF_model_time_series_people_demo                                                           
model_hash         :   0xcf3de3874454318ea472204b4b7b62e8                                                          
params #           :   299 items (1.17 KiB)                                                                        
-------------------------------------------------------------------------------------------------------------------
input 1/1          :   'input_1', f32(1x8x8x1), 256 Bytes, activations                                             
output 1/1         :   'dense', f32(1x3), 12 Bytes, activations                                                    
macc               :   3,440                                                                                       
weights (ro)       :   1,196 B (1.17 KiB) (1 segment)                                                              
activations (rw)   :   932 B (932 B) (1 segment) *                                                                 
ram (total)        :   932 B (932 B) = 932 + 0 + 0                                                                 
-------------------------------------------------------------------------------------------------------------------
(*) 'input'/'output' buffers can be used from the activations buffer

Model name - ToF_model_time_series_people_demo
------ --------------------------------------- ------------------- ------------ ------- --------------- --- --------------- ------------------ ------------------------------- 
m_id   layer (type,original)                   oshape              param/size      macc    connected to   | c_size          c_macc             c_type                          
------ --------------------------------------- ------------------- ------------ ------- --------------- --- --------------- ------------------ ------------------------------- 
0      input_1 (Input, InputLayer)             [b:1,h:8,w:8,c:1]                                          |                                    
------ --------------------------------------- ------------------- ------------ ------- --------------- --- --------------- ------------------ ------------------------------- 
1      conv2d (Conv2D, Conv2D)                 [b:1,h:6,w:6,c:8]   80/320         2,600         input_1   | -320(-100.0%)   -2,600(-100.0%)    
------ --------------------------------------- ------------------- ------------ ------- --------------- --- --------------- ------------------ ------------------------------- 
2      activation (Nonlinearity, Activation)   [b:1,h:6,w:6,c:8]                    288          conv2d   |                 -288(-100.0%)      
------ --------------------------------------- ------------------- ------------ ------- --------------- --- --------------- ------------------ ------------------------------- 
3      max_pooling2d (Pool, MaxPooling2D)      [b:1,h:3,w:3,c:8]                    288      activation   | +320(+100.0%)   +2,888(+1002.8%)   Conv2D_[0]                      
------ --------------------------------------- ------------------- ------------ ------- --------------- --- --------------- ------------------ ------------------------------- 
4      flatten (Reshape, Flatten)              [b:1,c:72]                                 max_pooling2d   |                                    
------ --------------------------------------- ------------------- ------------ ------- --------------- --- --------------- ------------------ ------------------------------- 
6      dense_dense (Dense, Dense)              [b:1,c:3]           219/876          219         flatten   |                 +45(+20.5%)        Dense_/Nonlinearity_[o][1, 2]   
       dense (Nonlinearity, Dense)             [b:1,c:3]                             45     dense_dense   |                 -45(-100.0%)       
------ --------------------------------------- ------------------- ------------ ------- --------------- --- --------------- ------------------ ------------------------------- 
model/c-model: macc=3,440/3,440  weights=1,196/1,196  activations=--/932 io=--/0



Generated C-graph summary
------------------------------------------------------------------------------------------------------------------------
model name            : ToF_model_time_series_people_demo
c-name                : network
c-node #              : 3
c-array #             : 10
activations size      : 932 (1 segment)
weights size          : 1196 (1 segment)
macc                  : 3440
inputs                : ['input_1_output']
outputs               : ['dense_output']

C-Arrays (10)
------ --------------------- ----------- ------------------------- ------------- --------- 
c_id   name (*_array)        item/size   domain/mem-pool           c-type        comment   
------ --------------------- ----------- ------------------------- ------------- --------- 
0      conv2d_bias           8/32        weights/weights           const float             
1      conv2d_output         72/288      activations/**default**   float                   
2      conv2d_scratch0       9/36        activations/**default**   float                   
3      conv2d_scratch1       96/384      activations/**default**   float                   
4      conv2d_weights        72/288      weights/weights           const float             
5      dense_dense_bias      3/12        weights/weights           const float             
6      dense_dense_output    3/12        activations/**default**   float                   
7      dense_dense_weights   216/864     weights/weights           const float             
8      dense_output          3/12        activations/**default**   float         /output   
9      input_1_output        64/256      activations/**default**   float         /input    
------ --------------------- ----------- ------------------------- ------------- --------- 

C-Layers (3)
------ ---------------- ---- --------------- ------ ----- ------------------------ ------------------ 
c_id   name (*_layer)   id   layer_type      macc   rom   tensors                  shape (array id)   
------ ---------------- ---- --------------- ------ ----- ------------------------ ------------------ 
0      conv2d           3    Conv2D          3176   320   I: input_1_output        f32(1x8x8x1) (9)   
                                                          S: conv2d_scratch0                          
                                                          S: conv2d_scratch1                          
                                                          W: conv2d_weights        f32(8x3x3x1) (4)   
                                                          W: conv2d_bias           f32(8) (0)         
                                                          O: conv2d_output         f32(1x3x3x8) (1)   
------ ---------------- ---- --------------- ------ ----- ------------------------ ------------------ 
1      dense_dense      6    Dense           219    876   I: conv2d_output         f32(1x3x3x8) (1)   
                                                          W: dense_dense_weights   f32(3x72) (7)      
                                                          W: dense_dense_bias      f32(3) (5)         
                                                          O: dense_dense_output    f32(1x3) (6)       
------ ---------------- ---- --------------- ------ ----- ------------------------ ------------------ 
2      dense            6    Nonlinearity    45     0     I: dense_dense_output    f32(1x3) (6)       
                                                          O: dense_output          f32(1x3) (8)       
------ ---------------- ---- --------------- ------ ----- ------------------------ ------------------ 



Number of operations per c-layer
------- ------ ---------------------- ------- -------------- 
c_id    m_id   name (type)                #op           type 
------- ------ ---------------------- ------- -------------- 
0       3      conv2d (Conv2D)          3,176   smul_f32_f32 
1       6      dense_dense (Dense)        219   smul_f32_f32 
2       6      dense (Nonlinearity)        45     op_f32_f32 
------- ------ ---------------------- ------- -------------- 
total                                   3,440 

Number of operation types
---------------- ------- ----------- 
operation type         #           % 
---------------- ------- ----------- 
smul_f32_f32       3,395       98.7% 
op_f32_f32            45        1.3% 

Complexity report (model)
------ --------------- ------------------------- ------------------------- -------- 
m_id   name            c_macc                    c_rom                     c_id     
------ --------------- ------------------------- ------------------------- -------- 
3      max_pooling2d   ||||||||||||||||  92.3%   ||||||            26.8%   [0]      
6      dense_dense     ||                 7.7%   ||||||||||||||||  73.2%   [1, 2]   
------ --------------- ------------------------- ------------------------- -------- 
macc=3,440 weights=1,196 act=932 ram_io=0

Generated files (7)
------------------------------------------------------------------------ 
C:\Users\binghui.lai\.stm32cubemx\network_output\network_data_params.h   
C:\Users\binghui.lai\.stm32cubemx\network_output\network_data_params.c   
C:\Users\binghui.lai\.stm32cubemx\network_output\network_data.h          
C:\Users\binghui.lai\.stm32cubemx\network_output\network_data.c          
C:\Users\binghui.lai\.stm32cubemx\network_output\network_config.h        
C:\Users\binghui.lai\.stm32cubemx\network_output\network.h               
C:\Users\binghui.lai\.stm32cubemx\network_output\network.c               
